onnx_model/plate_rec.onnx (onnx, 719233 bytes, 26 tensors)

139 f4 [8, 3, 5, 5]
0	0x3b89fb7d	0.004210888
1	0xbba75ac6	-0.0051072566
2	0x3c3df132	0.01159315
3	0xbcb86f1e	-0.022513922
4	0x3bfefc6d	0.0077815563
5	0x3cab8a9c	0.020940118
6	0xbc82f5e3	-0.015986389
7	0xbd01aefc	-0.03166102
8	0xbd4022a7	-0.046908047
9	0xbd1ceafb	-0.038310032
10	0xbab2d9bf	-0.0013645216
11	0x3c045c22	0.008078607
12	0x3c68158d	0.014165294
13	0xbcb9c344	-0.022676118
14	0xbb9283f5	-0.004471297
15	0x3ca046df	0.019565044
16	0x3cffae1f	0.031210957
17	0x3c9bcbb7	0.019018037
18	0x3a18fd7f	0.00058361137
19	0xba20e78e	-0.000613802
20	0xbbadfc11	-0.0053095897
21	0x3cce4bf8	0.02518271
22	0x3c97debf	0.01853883
23	0xbae0b9ce	-0.0017145218
24	0xbcbf68cf	-0.023365406
25	0xbb826c05	-0.003980162
26	0xbcfdfeb1	-0.031005235
27	0xbcd63f7f	-0.026153324
28	0xbd91961f	-0.071087115
29	0xbdac7b3b	-0.08421942
30	0x3d0515ca	0.032491483
31	0xbbd12c0d	-0.006383425
32	0xbc8dc827	-0.017307354
33	0xbd97de9b	-0.074155055
34	0xbdbadcc5	-0.0912414
35	0x3d0ce3b8	0.034396857
36	0x3d268c87	0.04066136
37	0xbc0341e1	-0.008011312
38	0xbd03bed4	-0.03216441
39	0xbd3b2fd1	-0.0456999
40	0x3d38c8e4	0.04511346
41	0x3d5624f6	0.052281342
42	0x3d0316ac	0.032004043
43	0x3c3dede7	0.011592365
44	0xbd2dac1a	-0.042400457
45	0x3d7def4b	0.061995786
46	0x3d832706	0.064039275
47	0x3cdb1ef7	0.026748164
48	0x3c89676c	0.016772948
49	0xbc1a93d8	-0.009434663
50	0x3c462ac8	0.012095161
51	0xbbcfe4f5	-0.0063444325
52	0xbc296a6c	-0.010340314
53	0xbd085e6a	-0.033293165
54	0xbd3d2f53	-0.04618771
55	0x3cd6010c	0.026123546
56	0x390a5eff	0.00013196094
57	0xbcb3b7c2	-0.021938208
58	0xbd4a9eaf	-0.04946774
59	0xbd1bfbed	-0.038082052
60	0x3cabaa2c	0.020955168
61	0x3ce56831	0.028003784
62	0x3b93dbce	0.0045122867
63	0xbcb3f5ba	-0.021967757
64	0xbba38253	-0.004989901
65	0x3d1775c4	0.036977544
66	0x3d7e5956	0.062096916
67	0x3d495747	0.0491555
68	0x3c7c59f5	0.015402307
69	0xbca8350d	-0.02053311
70	0x3d30b167	0.043137934
71	0x3d11c690	0.035589755
72	0x3d32553f	0.04353833
73	0x3d215f13	0.03939731
74	0xb85ca759	-5.2607942e-05
75	0x3cc0d35b	0.023538282
76	0x3ab106ab	0.0013506016
77	0xbbcc5314	-0.0062354896
78	0x3cb1bb8b	0.021695873
79	0x3b93af09	0.00450695
80	0x3d1ba6fa	0.038001038
81	0xbaf895f3	-0.0018965587
82	0xbbfd5c3b	-0.007731942
83	0xbc07eb18	-0.008295797
84	0xb9ea3abf	-0.00044675727
85	0x3c0f3106	0.008739715
86	0xbb77ceb3	-0.0037812411
87	0xbcd67a3a	-0.026181329
88	0xbd15c130	-0.03656119
89	0xbc83286d	-0.016010487
90	0x3d099aa0	0.033594728
91	0xbc8cd782	-0.017192606
92	0xbd2d97ea	-0.042381205
93	0xbd17b489	-0.037037406
94	0xbcba828c	-0.022767328
95	0x3c7745f7	0.0150923645
96	0x3bbaa24f	0.005695618
97	0xbce8de53	-0.028426325
98	0xbac1859c	-0.001476455
99	0x3a995e61	0.0011701101
100	0x3d77d507	0.060505893
101	0x3d15347c	0.036427006
102	0x3cc2a7fc	0.023761742
103	0x3b5515ec	0.0032514287
104	0xbcce3524	-0.025171824
105	0x3d9b6f2d	0.075895645
106	0x3d13c16a	0.036073126
107	0x3c73f549	0.0148900235
108	0x3ab30f16	0.0013661112
109	0xbcd17f86	-0.025573503
110	0x3d92b016	0.07162492
111	0x3cab4418	0.020906493
112	0xbc634da7	-0.013873494
113	0xbd144f44	-0.036208406
114	0xbd72bd64	-0.05926265
115	0x3ced3587	0.028956188
116	0xbbade67b	-0.0053070164
117	0xbc9e9aa4	-0.019360848
118	0xbd5de43a	-0.054172732
119	0xbd87d2c5	-0.06631998
120	0x3d0993e7	0.033588316
121	0x3c32ca2f	0.010912462
122	0xbc8bfa73	-0.017087197
123	0xbd6e174d	-0.05812769
124	0xbd749a9d	-0.059717763
125	0x3d970ad8	0.07375115
126	0x3d46ce19	0.048536394
127	0x3d492305	0.049105663
128	0x3cf5f204	0.030022629
129	0xbc153b59	-0.009108388
130	0x3d5ea463	0.05435599
131	0x3d55378a	0.05205492
132	0x3c0781c7	0.008270687
133	0x3c9dbc8b	0.019254943
134	0x3ad8e995	0.0016549105
135	0x3d5fcdad	0.054639507
136	0x3ce14112	0.027496848
137	0xbc8b707c	-0.01702141
138	0xbc279c81	-0.0102301845
139	0xbcdbf205	-0.026848802
140	0x3cc3ba6f	0.02389261
141	0x3b7af375	0.0038292084
142	0xbd32bd14	-0.04363735
143	0xbd401a9e	-0.046900384
144	0xbd67e571	-0.056615297
145	0x3ccdfd9f	0.02514535
146	0xbc923d5b	-0.017851522
147	0xbd13aa5b	-0.036051136
148	0xbd6a69a1	-0.05722964
149	0xbd4e6c66	-0.050396346
150	0xbe863b42	-0.26217085
151	0xbd032eaa	-0.032026924
152	0x3e503bd6	0.20335326
153	0x3eb528d0	0.353827
154	0xbd54f52f	-0.051991638
155	0xbe1855a6	-0.14876422
156	0x3f0a7911	0.5409098
157	0xbec9ccae	-0.3941397
158	0xbf21165a	-0.6292473
159	0x3ed7c467	0.4214203
160	0xbe0c327b	-0.13691132
161	0x3e96cefd	0.29454795
162	0xbe699db5	-0.22814067
163	0xbe35afa4	-0.17742783
164	0x3e8722e6	0.26393813
165	0xbe188574	-0.14894658
166	0x3c4e5df8	0.012595646
167	0x3ea5b94a	0.32367927
168	0x3ec9e2d4	0.3943087
169	0xbd864efc	-0.06558034
170	0xbe0784a6	-0.13234195
171	0xbbf63327	-0.007513422
172	0xbde02ec3	-0.10946419
173	0xbd94a4e9	-0.072580166
174	0xbd84e584	-0.06489089
175	0xbd2b9eea	-0.0418996
176	0xbd3f8be3	-0.046764266
177	0x3e07255e	0.13197848
178	0x3e9d1345	0.30678764
179	0x3da48922	0.080339685
180	0x3c8e2922	0.017353598
181	0x3f05d6a7	0.5228066
182	0xbf31e19a	-0.69484866
183	0xbf5eab09	-0.8697973
184	0x3ed71413	0.42007503
185	0xbe028682	-0.12746623
186	0x3e97cc7e	0.29648203
187	0xbeeccec7	-0.4625151
188	0xbeac58bc	-0.3366145
189	0x3e966c88	0.29379678
190	0x3db3a9f1	0.08772648
191	0xbde49e30	-0.11162984
192	0x3eda8f8f	0.42687652
193	0x3e8548f3	0.26032218
194	0x3d28d060	0.041214347
195	0x3c76f81b	0.015073801
196	0xbcd42892	-0.025898252
197	0x3b8a8766	0.0042275665
198	0xbd9d92ca	-0.076940134
199	0x3e2aa7c3	0.16665559
200	0x3e5cc7f5	0.21560653
201	0x3e126fdb	0.14300482
202	0x3e11a7bd	0.14224143
203	0x3e838670	0.25688505
204	0xbe6a4910	-0.22879434
205	0x3e0ab155	0.1354421
206	0x3e645468	0.22297823
207	0xbf384141	-0.7197457
208	0xbf572cef	-0.8405294
209	0x3e7f08a6	0.24905643
210	0x3de08226	0.10962324
211	0x3e520824	0.20510918
212	0xbeee27a6	-0.46514624
213	0xbea8a1d0	-0.32935953
214	0x3d411f7b	0.047149163
215	0x3e0e33ac	0.13886899
216	0xbe033dea	-0.12816587
217	0x3ead817a	0.33887845
218	0x3ef857c3	0.48504457
219	0xbe5dde42	-0.21666816
220	0x3df737a2	0.12071158
221	0xbc9885d3	-0.0186185
222	0xbe09b7a8	-0.13448966
223	0x3c009453	0.007847863
224	0xbe2a1e91	-0.16613223
225	0xbc8ffab1	-0.017575594
226	0xbc275e86	-0.010215407
227	0x3c84828f	0.016175536
228	0x3cb8a007	0.022537244
229	0x3d0533c9	0.03252009
230	0xbc0ca4ed	-0.008584243
231	0x3c21c62b	0.009873907
232	0xbb181025	-0.0023202982
233	0x3c98219a	0.01857071
234	0x3d1671c7	0.0367296
235	0xbcd8c953	-0.026463186
236	0xbcf0262d	-0.029315079
237	0x3d059919	0.03261671
238	0x3d36657c	0.044530377
239	0x3c94bc8b	0.01815631
240	0xbc45e37e	-0.012078164
241	0xbd206771	-0.03916115
242	0xbd0d1ad1	-0.034449402
243	0x3c2b2bfb	0.0104474975
244	0x3b03a1e4	0.0020085508
245	0xbb7c9667	-0.0038541795
246	0xbca04ac0	-0.019566894
247	0x3bd633fd	0.006536959
248	0xbc34f36b	-0.0110443635
249	0x3c796bbb	0.015223439
250	0xbce3b37c	-0.027795546
251	0xb889316b	-6.541874e-05
252	0x3c669398	0.014073275
253	0x3d42ac1a	0.04752741
254	0x3d43c4b7	0.047795024
255	0xbcb03774	-0.021510817

140 f4 [8]
0	0x3ea001c0	0.31251335
1	0x3e6b5a2a	0.22983614
2	0x3fb1fdd4	1.3905587
3	0x3ebe0034	0.3710953
4	0x3e98e846	0.2986471
5	0x3f0f8951	0.56068903
6	0xbe408efc	-0.18804544
7	0xbf37d3e4	-0.71807694

142 f4 [8, 8, 3, 3]
0	0xbe4056f3	-0.18783168
1	0xbbbfec80	-0.0058570504
2	0xbd3c2bbc	-0.045940146
3	0xbe631579	-0.2217616
4	0xbdcdff8c	-0.10058507
5	0xbe1e482c	-0.15457219
6	0x3d1a1a4d	0.03762274
7	0xbcab574c	-0.02091565
8	0xbe83bf69	-0.25731972
9	0x3db9da74	0.0907487
10	0x3e0d0f71	0.13775422
11	0x3db57478	0.08860105
12	0x3db8f701	0.09031487
13	0x3bede5bc	0.0072600525
14	0x3e5b81f0	0.21436286
15	0xbc8e8052	-0.017395172
16	0x3c5ca674	0.01346742
17	0x3d83502d	0.06411777
18	0x3cd19559	0.02558391
19	0xbe356959	-0.17715968
20	0x3e0bf7a7	0.1366869
21	0xbe9aa33f	-0.30202672
22	0xbed84eea	-0.42247707
23	0x3e2194a0	0.15779352
24	0x3e8c0f87	0.27355596
25	0x3ea8b1dd	0.329482
26	0xbcf25f95	-0.029586593
27	0xbd5caf76	-0.05387827
28	0x3cd6cee4	0.0262217
29	0xbde95041	-0.1139226
30	0x3dee9c44	0.11650899
31	0x3e7541f1	0.23950936
32	0x3d883e83	0.06652548
33	0x3d7548da	0.05988393
34	0x3dd1f390	0.10251534
35	0x3dd9a4fd	0.10627172
36	0xbd47d68e	-0.0487886
37	0xbcaab4d1	-0.020838173
38	0xbe80b269	-0.25136116
39	0xbda43b3b	-0.0801911
40	0xbe84ad42	-0.25913435
41	0xbeb73dc6	-0.35789317
42	0xbdbdc3ab	-0.09265836
43	0xbda42b22	-0.080160394
44	0x3ced9d1b	0.029005578
45	0x3dbc6ec0	0.092008114
46	0xbda052a0	-0.078282595
47	0xbd808b84	-0.062766105
48	0x3d0da1a5	0.034577984
49	0x3c2eabd4	0.010661084
50	0x3dd03594	0.10166469
51	0xbe66a64b	-0.22524373
52	0xbd5fb1ef	-0.05461305
53	0x3e43273e	0.19057938
54	0xbdc09be8	-0.09404737
55	0x3aa15cd7	0.0012310994
56	0xbdae34c3	-0.08506157
57	0xbd7a8d26	-0.061169766
58	0x3d0e253e	0.034703486
59	0xbd274eb5	-0.040846545
60	0x3e01c1a5	0.12671526
61	0x3de22c80	0.11043644
62	0x3c96ac66	0.018392753
63	0x3e63a8a0	0.22232294
64	0x3f0451d8	0.51687384
65	0x3f03f56e	0.5154637
66	0xbc349a7a	-0.011023158
67	0x3eb7d1f4	0.3590237
68	0x3e251198	0.16119993
69	0xbec51822	-0.38494974
70	0xbe96715c	-0.2938336
71	0xbef93e94	-0.48680556
72	0x3d4849ec	0.048898622
73	0xbd7c7a71	-0.061640207
74	0x3d8320db	0.06402751
75	0x3c61c4e8	0.013779856
76	0x3dab601e	0.08367942
77	0x3dba4834	0.09095803
78	0xbe8274be	-0.25479692
79	0x3e227cf7	0.15867983
80	0xbb11ec82	-0.0022266214
81	0xbde1f5ff	-0.11033248
82	0xbdda00fe	-0.106447205
83	0xbcd3a8a6	-0.025837254
84	0xbe2696d8	-0.1626848
85	0xbe0e4b50	-0.13895917
86	0xbd6c7621	-0.057729844
87	0xbdb838c5	-0.08995203
88	0x3c79476e	0.015214784
89	0xbc1e9355	-0.009678681
90	0x3dae86bc	0.08521792
91	0x3e9340ae	0.28760284
92	0x3e54e50d	0.20790501
93	0xbe2af4ad	-0.16694899
94	0xbec1e6d9	-0.37871435
95	0xbd539d02	-0.051663406
96	0x3cbd6097	0.023117347
97	0xbdc0cbca	-0.0941387
98	0xbb29a634	-0.0025886418
99	0xbe7aa0fe	-0.24475476
100	0xbcfeac13	-0.03108791
101	0xbd318901	-0.043343548
102	0x3ca19e6f	0.019728867
103	0x3e256d42	0.1615496
104	0x3ea14eda	0.3150547
105	0xbdf06603	-0.11738207
106	0xbd235f41	-0.039885763
107	0x3e84f6ab	0.25969443
108	0x3e16cf35	0.1472748
109	0x3d30fca7	0.043209698
110	0x3d582a7c	0.05277489
111	0x3c01c8e5	0.007921432
112	0xbd4e33b5	-0.05034228
113	0x3e2f6d9f	0.17131661
114	0x3cc71da0	0.024306118
115	0xbe9ec65a	-0.31010705
116	0xbd8a8cb1	-0.06765116
117	0xbe596a9c	-0.21232074
118	0xbe2338aa	-0.15939584
119	0x3d997b84	0.07494262
120	0xbc9caacf	-0.019124417
121	0xbd9fb111	-0.077974446
122	0x3d40014d	0.04687624
123	0xbd640bb8	-0.05567524
124	0xbd4dc6e8	-0.05023852
125	0x3dffe27a	0.12494369
126	0x3e626249	0.22107805
127	0x3d938559	0.072031684
128	0x3daa59c9	0.083179064
129	0xbe451697	-0.19246899
130	0xbed3085a	-0.4121731
131	0xbccdb477	-0.025110466
132	0x3e2c1b4f	0.16807292
133	0x3b3d390c	0.0028873114
134	0x3d8d2928	0.068926156
135	0xbeb3331f	-0.3499994
136	0xbd2d77df	-0.042350646
137	0x3edef5c3	0.43546876
138	0x3cad1071	0.021126004
139	0x3db12940	0.08650446
140	0x3ee16974	0.44025767
141	0xbd460026	-0.048339985
142	0x3ca4b824	0.020107336
143	0x3e84d330	0.25942373
144	0xbd1349a9	-0.03595892
145	0x3dbe6df0	0.09298313
146	0xbdfe76d2	-0.12425007
147	0x3d75192e	0.059838466
148	0x3e6f0c1e	0.23344466
149	0x3d96bc87	0.073601775
150	0x3d24b8cb	0.040215295
151	0x3e0f597f	0.13998984
152	0x3d98d27e	0.07462023
153	0xbd2858f7	-0.04110047
154	0xbd0233fa	-0.03178785
155	0xbdb90870	-0.090348125
156	0x3d28da05	0.041223545
157	0xbd222fee	-0.03959649
158	0xbe0df03f	-0.13861178
159	0xb9ed5be6	-0.00045272632
160	0xbda42edd	-0.08016751
161	0xbcea6589	-0.028612869
162	0xbcef4148	-0.029205933
163	0x3d1fadd2	0.038984127
164	0x3dccd1e4	0.10000971
165	0xbcbc992d	-0.023022259
166	0x3e21303a	0.15741053
167	0x3dca9aba	0.09892793
168	0xbdb9de61	-0.090756185
169	0xbdf76154	-0.12079111
170	0xbddde1f4	-0.10834113
171	0x3c91203c	0.017715566
172	0xbdb95bd9	-0.09050722
173	0x3d5f4bb4	0.054515556
174	0xbd760dad	-0.060071636
175	0xbdf66a5b	-0.120320044
176	0xbe0d96b4	-0.1382702
177	0x3ca82e7a	0.020529974
178	0xbda7aa1e	-0.08186744
179	0xbe02085f	-0.12698506
180	0xbe44845d	-0.19191118
181	0x3d0b2d45	0.03397872
182	0x3da33961	0.079699285
183	0xbdaa4ad9	-0.08315057
184	0x3de1d5d4	0.110271126
185	0x3e7b0e89	0.24517263
186	0x3c6bbf1b	0.014388825
187	0x3e2db0d9	0.16961993
188	0x3ddbf4e5	0.10740069
189	0xbdddef05	-0.10836605
190	0xbd4c4f8e	-0.049880557
191	0x3c0830de	0.008312432
192	0xbc727150	-0.014797524
193	0xbc9d6af7	-0.019216044
194	0xbd3e405f	-0.046448108
195	0x3df93b2f	0.121694915
196	0x3dd0cd3a	0.10195394
197	0x3dde3fcf	0.10852014
198	0x3d811530	0.06302869
199	0x3ddee0d8	0.10882729
200	0x3bd53bca	0.0065073716
201	0x3b9c413f	0.00476852
202	0x3d1cb9af	0.03826302
203	0x3d4c59bd	0.04989027
204	0xbcb5a76a	-0.022174556
205	0xbe0d885a	-0.13821545
206	0xbda5a26b	-0.080876194
207	0x3d46a94f	0.04850131
208	0xbe06402b	-0.13110416
209	0xbdec3ea5	-0.11535386
210	0x3e3b1080	0.18268013
211	0x3df16704	0.11787227
212	0x3d0c528b	0.034258407
213	0x3e80e6cc	0.25176084
214	0x3eb0c925	0.3452846
215	0x3e998b1c	0.29988945
216	0xbd6f6adf	-0.05845153
217	0xbd994b68	-0.07485086
218	0xbd9f2dba	-0.077723935
219	0x3d544e14	0.051832274
220	0x3d5dcdd9	0.05415139
221	0x3c67f1c5	0.014156763
222	0x3d0e77b7	0.034782138
223	0x3d846ce9	0.064660855
224	0x3d96fe95	0.073727764
225	0x3dce6fb7	0.10079902
226	0x3d831d58	0.06402081
227	0x3e5efbfd	0.21775813
228	0x3defaa9a	0.117024615
229	0x3da2b4ba	0.07944627
230	0x3e51d45b	0.20491163
231	0x3b9f1461	0.0048547243
232	0xbe1f5a98	-0.15561903
233	0xbd466387	-0.04843476
234	0x3d85e7e6	0.06538372
235	0xbbbf2be1	-0.005834088
236	0xbda3c7de	-0.07997106
237	0xbd59ba05	-0.053155918
238	0x3d41ab3d	0.047282446
239	0xbca3c78e	-0.019992616
240	0xbdb2bc1d	-0.08727286
241	0x3e27e565	0.16396101
242	0xbc8f79b1	-0.017514082
243	0xbe403643	-0.18770699
244	0xbdc1e83a	-0.09468122
245	0xbda26465	-0.07929305
246	0xbe080a78	-0.13285244
247	0xbe154dc9	-0.14580454
248	0xbd990717	-0.074720554
249	0xbddac493	-0.10682025
250	0xbcf19ddc	-0.029494219
251	0xbc9dbf74	-0.019256331
252	0x3da77fa8	0.08178645
253	0x3c3c36dd	0.01148769
254	0xbdded4ee	-0.10880457
255	0xbd090578	-0.03345248

143 f4 [8]
0	0x3f4192da	0.756147
1	0x3f0c1cb8	0.5473132
2	0x3e1044b0	0.14088702
3	0x3f2d0de3	0.67599314
4	0x3e64f3a8	0.22358572
5	0xbf0f8c8c	-0.5607383
6	0x3f39d916	0.7259687
7	0x3fa046e2	1.2521632

145 f4 [16, 8, 3, 3]
0	0x3db4318d	0.087985136
1	0x3d01e564	0.031712905
2	0x3da48ec9	0.080350466
3	0x3e242452	0.1602948
4	0x3c33d95c	0.0109771155
5	0x3d23c547	0.03998306
6	0x3d8d866e	0.06910406
7	0xbcb22e72	-0.021750662
8	0xbdaa5b5e	-0.08318208
9	0x3dcbb92b	0.09947427
10	0x3d0e768d	0.034781028
11	0x3d36f2e7	0.044665243
12	0xbb03adf2	-0.0020092693
13	0x3e5b10ba	0.213931
14	0x3c7c2802	0.015390398
15	0xbe80dd20	-0.25168705
16	0xbe29d76c	-0.16586083
17	0x3c2ea469	0.010659316
18	0xbe33d880	-0.17563057
19	0xbce4179c	-0.02784329
20	0x3dcd1b4a	0.100149706
21	0xbe7291ca	-0.23688427
22	0xbd8104fd	-0.062997796
23	0x3e833342	0.25625044
24	0xbe317e83	-0.17333417
25	0xbb1fb114	-0.0024367021
26	0x3eadac4b	0.33920512
27	0xbdf1ab4e	-0.11800252
28	0xbd88aa00	-0.0667305
29	0xbe1088db	-0.14114706
30	0x3ad3e6e8	0.0016166838
31	0x3da5ab6c	0.08089337
32	0xbd3cfb84	-0.0461383
33	0xbda901f6	-0.08252327
34	0x3dd083ea	0.101814106
35	0x3d8bff77	0.068358354
36	0xbe6ef708	-0.23336422
37	0x3b71e7ed	0.003691192
38	0xbe1b369b	-0.15157549
39	0x3d0df936	0.034661494
40	0x3e458339	0.19288339
41	0xbe20f5b0	-0.15718722
42	0x3e4bdb1e	0.19907805
43	0x3e320888	0.17386067
44	0x3d405476	0.04695555
45	0xbe7e74bb	-0.24849217
46	0xbd9d739d	-0.07688067
47	0x3d94ac82	0.07259466
48	0x3d806e70	0.06271064
49	0x3d00d935	0.031457145
50	0x3dc7da5f	0.09758448
51	0x3e60a462	0.21937707
52	0x3dea62f9	0.11444659
53	0x3da0a98d	0.07844839
54	0xbd86ae3b	-0.065762006
55	0xbe9da1d4	-0.30787528
56	0xbd28d73b	-0.041220885
57	0x3e7b6dd6	0.24553618
58	0xbe1afb71	-0.1513498
59	0xbe22c626	-0.158959
60	0xbd6a4249	-0.05719212
61	0xbe8944f7	-0.26810429
62	0xbe81fd05	-0.2538835
63	0x3c2bbd80	0.010482192
64	0x3c4b0c9d	0.012393144
65	0xbe127158	-0.1430105
66	0xbe082795	-0.1329635
67	0x3d5e7e86	0.05431988
68	0xbd4bbb39	-0.049739096
69	0x3ded5d7d	0.11590097
70	0xbd5522a8	-0.052035004
71	0x3cbd140a	0.023080844
72	0x3bbd6330	0.0057796463
73	0xbf02acab	-0.5104472
74	0xbe935418	-0.28775096
75	0x3d419b72	0.047267385
76	0xbe00d513	-0.12581281
77	0xbddfb72b	-0.109236084
78	0x3df56cd3	0.11983647
79	0xbd826dd4	-0.06368604
80	0xbe60bf0f	-0.21947883
81	0x3d70f067	0.058823016
82	0x3d1838a0	0.037163377
83	0xbe458731	-0.19289853
84	0x3d9b5f2b	0.07586511
85	0xbc9d2450	-0.019182354
86	0xbe079af3	-0.13242702
87	0xbdad800a	-0.08471687
88	0xbd9979b6	-0.07493918
89	0xbe278f43	-0.16363244
90	0x3e087c6f	0.13328718
91	0x3d7a001f	0.06103527
92	0x3e260c1f	0.16215561
93	0xbb3e5b28	-0.0029046033
94	0xbd45a7df	-0.048255797
95	0x3da3e632	0.08002891
96	0xbec5e07c	-0.3864783
97	0xbd5736c0	-0.052542448
98	0x3e4a4f89	0.19756903
99	0x3deb83d8	0.114997566
100	0xbdbc4d1f	-0.09194397
101	0x3b1bace4	0.0023754174
102	0xbc8f5362	-0.017495815
103	0xbce2b61d	-0.027674729
104	0x3d843a5f	0.06456446
105	0x3e180f3f	0.14849566
106	0x3d936ace	0.07198106
107	0x3d86263d	0.06550262
108	0x3c8367e0	0.016040742
109	0xbdee088c	-0.11622724
110	0xbe5d3aef	-0.21604513
111	0xbe069131	-0.13141324
112	0xbcc9f6c5	-0.024653802
113	0xbde1fef7	-0.11034959
114	0xbe1bc8d4	-0.15213329
115	0xbd99c2d4	-0.07507864
116	0x3cb962df	0.022630153
117	0x3de1f741	0.11033488
118	0x3da8af16	0.0823652
119	0x3d23c5a6	0.039983414
120	0xbd112ebc	-0.03544496
121	0xbd29d005	-0.04145815
122	0xbd3bb88a	-0.045830287
123	0xbd29f628	-0.04149452
124	0xbc0cee23	-0.008601698
125	0x3db7eed8	0.08981103
126	0x3d9f3488	0.077736914
127	0x3ce05798	0.027385518
128	0x3d90e7d4	0.07075468
129	0xbda3340c	-0.079689115
130	0xbe2250b3	-0.15851097
131	0x3d60ab93	0.054851126
132	0x3d15ff51	0.03662044
133	0xbd8e0481	-0.06934453
134	0x3e2b401f	0.16723679
135	0x3de5a48d	0.11213026
136	0x3e09de93	0.13463812
137	0xbe1daeae	-0.15398666
138	0xbce7d953	-0.02830187
139	0x3d0de826	0.034645222
140	0xbd7fb56d	-0.06242888
141	0x3e169da1	0.14708568
142	0xbddd9f26	-0.10821371
143	0x3d2dce08	0.042432815
144	0x3d3ccf26	0.04609599
145	0xbd5b1c58	-0.053493828
146	0xbe98b76d	-0.29827443
147	0x3d79c047	0.060974386
148	0x3e155dd9	0.14586581
149	0x3e105a7e	0.1409702
150	0xbd9c4451	-0.07630218
151	0x3df8870f	0.121351354
152	0x3dd9933f	0.10623788
153	0xbe22347d	-0.15840335
154	0xba973fcc	-0.0011539399
155	0xbdb3d660	-0.08781123
156	0x3d8fe2d3	0.07025685
157	0x3eda1d65	0.4260055
158	0xbe3b4034	-0.1828621
159	0x3d4242b0	0.04742688
160	0x3e05d67e	0.13070104
161	0xbe8b4793	-0.27203044
162	0x3e35bb00	0.17747116
163	0x3e6efcc3	0.23338608
164	0xbd0d79af	-0.034539875
165	0xbd018451	-0.031620327
166	0xbcf0a717	-0.02937655
167	0xbdd8470f	-0.10560428
168	0xbe1ff3db	-0.15620367
169	0x3c97281a	0.01845174
170	0xbe26d280	-0.16291237
171	0xbe80c8e3	-0.25153264
172	0xbc7386f2	-0.014863716
173	0xbe1a345a	-0.15059033
174	0x3d21f35c	0.039538726
175	0x3e6f5607	0.2337266
176	0x3d2eba7a	0.042658307
177	0xbcb269ae	-0.021778908
178	0x3c9ed85d	0.01939028
179	0xbdddf634	-0.10837975
180	0xbdb0654d	-0.086130716
181	0xbe43da78	-0.19126308
182	0x3d6bc5cc	0.05756168
183	0x3dfc9996	0.12333982
184	0x3d9f9459	0.07791967
185	0x3d903463	0.07041242
186	0x3da8ea00	0.08247757
187	0xbd4fbdc4	-0.050718084
188	0xbe28ada1	-0.16472484
189	0xbe322eac	-0.17400616
190	0x3e59e95c	0.21280426
191	0x3e3fc754	0.18728381
192	0xbe2aa65e	-0.16665027
193	0xbe2c153e	-0.16804978
194	0xbd812618	-0.06306094
195	0xba779c2f	-0.00094455754
196	0x3e0e1680	0.1387577
197	0x3e493559	0.19649257
198	0x3e086875	0.13321097
199	0x3c974200	0.018464088
200	0xbed6db63	-0.41964254
201	0xbe4c606d	-0.19958659
202	0xbe80adce	-0.25132602
203	0xbe859596	-0.26090688
204	0xbd49a66c	-0.049230978
205	0x3e93f2a2	0.28896052
206	0x3efabf41	0.4897404
207	0xbd4c6def	-0.04990953
208	0xbd181f0d	-0.037138987
209	0xbe2f7a4b	-0.17136495
210	0x3e66c998	0.2253784
211	0x3ebbbfeb	0.3666986
212	0x3c01ec1d	0.007929829
213	0xbe2d8d9f	-0.16948555
214	0xbdc2c7a6	-0.09510736
215	0x3d2342cc	0.039858624
216	0x3d06b9a8	0.0328919
217	0xbc9f5936	-0.019451719
218	0x39fd09d6	0.0004826325
219	0xbd24d54a	-0.04024247
220	0xbe25a431	-0.16175915
221	0x3d68b0c1	0.05680919
222	0xbdedccb1	-0.116113074
223	0xbdde2cc7	-0.10848384
224	0x3df870c9	0.12130887
225	0xbdbdf35b	-0.09274932
226	0x3e182e42	0.14861396
227	0x3e47ed5b	0.19524138
228	0xbe2076eb	-0.15670364
229	0xbd3bc154	-0.04583867
230	0x3e428989	0.18997778
231	0xbdd489eb	-0.10377868
232	0x3d844203	0.06457903
233	0x3e593ca5	0.2121454
234	0x3cf2b50a	0.029627342
235	0xbd93590d	-0.071947195
236	0xbc3c0550	-0.011475876
237	0xbdad4e30	-0.08462179
238	0xbc23977f	-0.00998485
239	0x3ce7c0bd	0.028290147
240	0x396344ca	0.00021674033
241	0x3e07b69f	0.13253258
242	0x3e88318e	0.26600307
243	0x3d84f698	0.064923465
244	0x3d8573e1	0.06516243
245	0x3df661d1	0.12030376
246	0xbd68a788	-0.056800395
247	0xbdccd478	-0.10001463
248	0x3ce11f0c	0.027480625
249	0xbd8e34cc	-0.06943664
250	0xbde5de43	-0.11224034
251	0x3cf5d0e8	0.03000684
252	0xbe29e756	-0.16592154
253	0xbd303e4a	-0.043028153
254	0x3c7edd1d	0.015555647
255	0xbdb3fb1a	-0.08788128

146 f4 [16]
0	0x3ed8adda	0.42320138
1	0x3f380ebe	0.71897495
2	0xbe64b30c	-0.22333926
3	0x3edaa993	0.427075
4	0xbe98482f	-0.29742572
5	0x3f2fb157	0.68629974
6	0x3f7be3ca	0.98394454
7	0x3f541dad	0.8285778
8	0x3f7f6517	0.99763626
9	0x3ebc5505	0.36783615
10	0x3f344d3d	0.70430356
11	0x3f31f08f	0.6950769
12	0x3f77c7fd	0.9678953
13	0x3f378d39	0.71699864
14	0x3d3e3999	0.04644165
15	0x3f41494e	0.7550248

148 f4 [16, 16, 3, 3]
0	0x3db3ec76	0.08785336
1	0x3d7a2d01	0.061078075
2	0x3e067c65	0.1313339
3	0x3ce160d6	0.027511995
4	0x3dcfd10c	0.101472944
5	0x3d6b5473	0.057453584
6	0x3d36c498	0.04462108
7	0x3d5add01	0.053433422
8	0x3daeccf7	0.08535188
9	0x3d81ce02	0.06338121
10	0x3d9f0094	0.07763782
11	0x3d8daad5	0.06917349
12	0x3dcebdee	0.1009482
13	0x3d8891cd	0.06668434
14	0x3dc234e9	0.09482748
15	0xbd3d3826	-0.046196125
16	0x3d777f64	0.060424224
17	0x3e2962ce	0.16541597
18	0xbce28566	-0.0276515
19	0x3d64758f	0.055776175
20	0xbd7be94e	-0.061501794
21	0x3d2f4bd9	0.042796943
22	0x3ba7e628	0.0051238723
23	0x3d276ca7	0.040875103
24	0x3d485857	0.048912372
25	0xbd777ed6	-0.060423695
26	0xbd0a5cfd	-0.033780087
27	0x3bbc70f5	0.00575077
28	0xbd9ac503	-0.07557108
29	0xbe09b261	-0.13446952
30	0xbd9c4e87	-0.076321654
31	0xbd4fc945	-0.050729055
32	0xbcd50d64	-0.026007362
33	0xbde102f4	-0.109868914
34	0xbd81a452	-0.0633017
35	0xbd13642d	-0.035984207
36	0xbd168716	-0.03674992
37	0xbd25cb6c	-0.0404772
38	0xbe04b6a8	-0.12960303
39	0x3c6c00ae	0.014404459
40	0xbc7325e2	-0.014840575
41	0xbd450879	-0.048103783
42	0xbc93845b	-0.018007448
43	0x3d181e04	0.037138
44	0xbdbe7771	-0.093001254
45	0xbd2792a9	-0.04091135
46	0xbd8db6e6	-0.06919651
47	0xbd58a5d3	-0.052892517
48	0xbce8501e	-0.028358515
49	0xbd58d94e	-0.052941613
50	0xbd4044b0	-0.046940506
51	0xbb099064	-0.0020990605
52	0xbcc76cdf	-0.024343906
53	0xbd994659	-0.07484121
54	0x3d924c0a	0.071434096
55	0xba860b0d	-0.0010226682
56	0xbc138174	-0.009003032
57	0x3d66f293	0.05638368
58	0x3d25e2af	0.040499385
59	0x3b89d372	0.0042061144
60	0x3d7db72b	0.06194226
61	0x3de4ca70	0.111714244
62	0x3d547db9	0.05187771
63	0x3cf742b6	0.030183177
64	0x3cff0a28	0.031132773
65	0xbc27afd5	-0.010234793
66	0x3c91eb4c	0.017812394
67	0x3d914009	0.07092292
68	0x3dae363a	0.08506437
69	0xbcf4323c	-0.02980911
70	0xbd027da6	-0.03185811
71	0x3d55ef6e	0.05223029
72	0xbcc95d02	-0.024580482
73	0x3da39ed4	0.079892784
74	0xbcdc1453	-0.02686516
75	0xbce8831c	-0.02838283
76	0xbd95e23c	-0.073185414
77	0xbd93859c	-0.07203218
78	0xbd06bcc7	-0.032894876
79	0x3c48e1a9	0.012260833
80	0xbd0bb8d6	-0.03411182
81	0x3d2b710b	0.041855853
82	0xbd801d33	-0.06255569
83	0xbd419589	-0.04726175
84	0x3d80d097	0.06289785
85	0xbc5e3b9e	-0.0135640185
86	0xbd2b1f74	-0.041778043
87	0xbd012536	-0.031529628
88	0xbc8aad59	-0.016928362
89	0xbc7e5b96	-0.0155247655
90	0xbc620832	-0.013795899
91	0xbd008270	-0.031374395
92	0x3a057423	0.0005090853
93	0xbdd0cb92	-0.10195078
94	0xbd30f11e	-0.043198697
95	0x3d0f5e84	0.035002246
96	0xbd02210b	-0.031769793
97	0x3d79526c	0.06086962
98	0x3da44ec3	0.08022835
99	0xbdb86993	-0.09004512
100	0x3d1dd9a1	0.038537625
101	0x3d93b113	0.072115086
102	0xbda4a5de	-0.08039449
103	0xbc8310ef	-0.015999286
104	0x3d7e99fe	0.062158577
105	0xbcb734ab	-0.022363981
106	0xb8ae7ffe	-8.320807e-05
107	0x3c3665d2	0.011132674
108	0xbd23e493	-0.040012907
109	0x3cc6e2c2	0.024278048
110	0x3d3536bd	0.044241656
111	0xbd5e7c72	-0.0543179
112	0x3c0c605d	0.008567897
113	0x3d07ef76	0.033187352
114	0xbc9d940c	-0.019235633
115	0xbd557d63	-0.05212153
116	0xbd9db723	-0.07700946
117	0x3cae57ba	0.021282066
118	0x3d1ff10b	0.039048236
119	0x3caa936f	0.020822255
120	0x3ca2b4bc	0.019861571
121	0xbc5a381a	-0.01331904
122	0xbd93f3d8	-0.07224244
123	0x3c97bebc	0.018523566
124	0x3b8df493	0.004332134
125	0x3bf17ce2	0.0073696235
126	0x3d3f8987	0.046762016
127	0x3d63e7ae	0.05564087
128	0x3de4c091	0.111695416
129	0x3d5bc5b9	0.05365536
130	0x3d5436fc	0.05181025
131	0x3dd23dab	0.102656685
132	0xbd54ba83	-0.051935684
133	0xbd9c6336	-0.076361105
134	0x3d15c3fe	0.036563866
135	0xbbe0e634	-0.00686338
136	0x3d17113b	0.036881667
137	0x3d319d00	0.043362617
138	0xbdca8d90	-0.09890282
139	0xbcff5f3c	-0.031173341
140	0x3c06f78e	0.008237733
141	0xbccedcf3	-0.025251841
142	0xbd620a1a	-0.055185415
143	0xbd635fcb	-0.055511277
144	0x3cb95e80	0.022628069
145	0xbcee8829	-0.02911766
146	0xbd25321e	-0.040331
147	0x3e0153d2	0.12629631
148	0x3dcd81d5	0.10034529
149	0x3d452253	0.048128437
150	0x3c9d5eba	0.019210208
151	0x3968bb77	0.0002219508
152	0x3d810378	0.0629949
153	0xbd34cf5f	-0.044143077
154	0x3bc76906	0.006085518
155	0xbd4ba042	-0.04971338
156	0xbde2df77	-0.11077779
157	0x3d3536f2	0.044241853
158	0x3cfcce42	0.03086007
159	0x3caf73f6	0.0214176
160	0xbc0f5ddc	-0.008750405
161	0x3c6935fa	0.01423406
162	0xbe22e53c	-0.15907758
163	0x3d332dea	0.04374496
164	0xbbcdde10	-0.0062825754
165	0xbe271b90	-0.16319108
166	0xbd929fa0	-0.07159352
167	0xbd580d3d	-0.052747
168	0x3caedcd5	0.021345535
169	0xbd78c591	-0.06073529
170	0xbcdee14b	-0.027207037
171	0x3e34380e	0.17599508
172	0x3e24d261	0.16095878
173	0x3e2c47a4	0.16824204
174	0x3d83bb82	0.06432249
175	0x3e47b141	0.19501211
176	0x3e09bb62	0.13450387
177	0x3dc3e524	0.095651895
178	0x3e19420b	0.149666
179	0x3d88c565	0.06678275
180	0xbdc78e68	-0.09743959
181	0xbd0f6a44	-0.035013452
182	0x3ccd3935	0.025051693
183	0xbd8cbe81	-0.06872273
184	0x3d0d1c38	0.03445074
185	0x3d505b16	0.050868116
186	0x3d912c34	0.07088509
187	0xbcc28e06	-0.023749363
188	0xbd80a03f	-0.062805645
189	0xbd2cdd40	-0.042203188
190	0x3d588455	0.052860577
191	0x3de5ce01	0.11220933
192	0x3d44d1b2	0.048051544
193	0xbe0450e4	-0.12921482
194	0xbcf7f647	-0.030268801
195	0x3d0369f1	0.032083455
196	0x3dc38386	0.095465705
197	0x3b0a87d9	0.00211381
198	0xbd8ec1ba	-0.06970544
199	0xbd37109f	-0.044693585
200	0x3d779f04	0.060454383
201	0xbd9d707d	-0.07687471
202	0x3d3c490f	0.04596811
203	0xbd114b9e	-0.035472505
204	0x3cdac376	0.026704531
205	0x3cdf44f0	0.027254552
206	0xbd5033cd	-0.05083065
207	0x3d3d5248	0.046221048
208	0x3d317e89	0.043333564
209	0x3d9c2172	0.07623567
210	0x3d85a2d6	0.06525199
211	0x3d0bfef8	0.034178704
212	0x3cce60d6	0.02519266
213	0xbcd1efd7	-0.02562706
214	0x3cc4b480	0.02401185
215	0xbce72634	-0.028216459
216	0x3c7817ed	0.015142423
217	0xbbd7c20c	-0.0065844115
218	0x3d81f0ac	0.06344733
219	0xbd0415b1	-0.03224725
220	0x3c3718be	0.011175333
221	0x3bd6e8d0	0.006558515
222	0x3c869078	0.01642631
223	0x3dd46432	0.10370673
224	0x3d956a6b	0.07295688
225	0xbda51baa	-0.08061917
226	0xbd32373d	-0.04350971
227	0x3d65d00e	0.05610662
228	0xbd481a0d	-0.04885297
229	0xbd884ff5	-0.066558756
230	0x3a3e1e96	0.00072524825
231	0x3c754aa7	0.014971412
232	0xbdacd904	-0.0843983
233	0xbd41aa9d	-0.04728185
234	0x3b7a098f	0.003815267
235	0xbd63066b	-0.055426043
236	0xbd2183bc	-0.039432272
237	0x3d144718	0.036200613
238	0xbcbd59cf	-0.023114113
239	0xbd0802b9	-0.03320572
240	0xbc91823b	-0.017762294
241	0xbc76593d	-0.0150359245
242	0xbd5a676c	-0.053321287
243	0x3db7130a	0.08939178
244	0xbda8781a	-0.082260326
245	0xbe1f6267	-0.15564881
246	0xbdb1c82a	-0.086807564
247	0xbb7d0f2f	-0.0038613786
248	0xbc9eb8d6	-0.019375246
249	0xbcd273e8	-0.025690034
250	0xbdd2ed6f	-0.10299193
251	0xbd0066ba	-0.031347968
252	0xbd095cc6	-0.03353574
253	0xbd76d514	-0.0602618
254	0xbc1bcfc0	-0.009509981
255	0xbb9ac777	-0.004723485

149 f4 [16]
0	0x3e4fa830	0.20279002
1	0x3f5eb75e	0.86998546
2	0x3fbce9e8	1.4758883
3	0x3ef94f43	0.48693284
4	0x402da2ac	2.7130537
5	0x3fa88b87	1.316758
6	0x3e9e86e0	0.30962276
7	0x3f2d9f99	0.6782165
8	0x3e8a50bd	0.27014723
9	0x3f95b22e	1.1695001
10	0x3f4b8fb7	0.79516166
11	0x3fad2c9b	1.3529238
12	0x3f0ac167	0.5420136
13	0x3fed66d3	1.8547004
14	0xbe96623c	-0.29371822
15	0x3ff6acfa	1.9271538

151 f4 [32, 16, 3, 3]
0	0xbc33717e	-0.010952352
1	0xbe092bf8	-0.13395679
2	0xbd97d100	-0.074129105
3	0xbd9cc9fc	-0.07655713
4	0xbd82eef0	-0.0639323
5	0xbd37620a	-0.04477123
6	0xbc6ebaec	-0.014570933
7	0xbbacfd76	-0.0052792383
8	0x3d4c4f8e	0.049880557
9	0xbce0b7fd	-0.027431482
10	0xbdd6277e	-0.10456751
11	0xbe2ea28a	-0.17054191
12	0xbcc48f1e	-0.023994025
13	0xbcd6da6e	-0.026227202
14	0x3c109f2b	0.008827011
15	0xbda38487	-0.07984262
16	0xbcae3b66	-0.021268558
17	0xbd7aae98	-0.06120166
18	0x3d1487b6	0.036262237
19	0x3ac13d05	0.0014742917
20	0x3d061a94	0.03274019
21	0xbd4ba01f	-0.04971325
22	0xbd3057ae	-0.043052368
23	0x3d36fbab	0.044673603
24	0x3cbf82b8	0.023377761
25	0x3e00b530	0.12569118
26	0x3deb8be2	0.1150129
27	0x3bc683f4	0.0060582105
28	0xbce29849	-0.027660506
29	0x3d3d1209	0.046159778
30	0xbd0ccca2	-0.03437484
31	0xbdadee20	-0.08492684
32	0x3daf5bb7	0.08562415
33	0xbd6f6dd6	-0.058454357
34	0xbd52ce1e	-0.0514661
35	0x3d88484b	0.06654414
36	0x3d992dbd	0.07479427
37	0xbc8c79cf	-0.017147927
38	0x3d918362	0.071051374
39	0x3e1c6ec3	0.15276627
40	0x3dcf9e61	0.1013763
41	0x3d1318a7	0.035912182
42	0xbce3b261	-0.027795019
43	0x3c76ad67	0.015055991
44	0x3d089897	0.033348646
45	0xbdbfa52b	-0.09357675
46	0xbc73ca92	-0.0148798395
47	0xbd8ddad9	-0.069265075
48	0xbd8b4b3a	-0.06801458
49	0xbcc52870	-0.024067134
50	0xbdb63a84	-0.0889788
51	0xbc8523d2	-0.016252432
52	0x3c2bf355	0.010495027
53	0x3d715962	0.058923133
54	0xbe56770a	-0.20943847
55	0xbd75f44a	-0.060047425
56	0x3da5046a	0.080574825
57	0xbde5ac1d	-0.11214469
58	0xbc9eba86	-0.01937605
59	0x3de21011	0.11038221
60	0x3d6a0fb7	0.057143893
61	0x3b9b51b3	0.004739964
62	0x3c62395a	0.013807619
63	0xbd221214	-0.039568022
64	0xbd0a9ced	-0.033841062
65	0xbce88f2b	-0.02838858
66	0xbbe5c87b	-0.0070124245
67	0x3b9d244d	0.004795587
68	0x3dc33d49	0.095331736
69	0x3d00ab68	0.031413466
70	0x3cb341eb	0.021882018
71	0x3d78bc25	0.060726304
72	0xbbf5ce8d	-0.0075014294
73	0xbda3ef2b	-0.08004602
74	0x3d68ddf0	0.05685228
75	0x3d461e70	0.04836887
76	0x3d08640a	0.03329853
77	0x3dbcc4a4	0.09217194
78	0xbc396b18	-0.011317037
79	0x3d0cde91	0.034391943
80	0x3c9f643f	0.01945698
81	0xbd92c720	-0.07166886
82	0xbd67e599	-0.056615446
83	0xbd4f6e19	-0.050642107
84	0xbdae8adc	-0.08522579
85	0xbd5ab72d	-0.053397346
86	0x3d062cd9	0.032757614
87	0xbcda2b87	-0.026632084
88	0x3d8c22f5	0.06842605
89	0x3ddd6caa	0.10811742
90	0x3d2d885f	0.04236638
91	0x3d33af82	0.04386855
92	0x3d26e779	0.040748093
93	0x3db10b15	0.08644692
94	0x3cad47cd	0.021152401
95	0x3d873b21	0.06603075
96	0x3c50fb8e	0.012755288
97	0x3d0188bb	0.031624537
98	0x3ddb63f4	0.10712424
99	0x3cdbc126	0.026825499
100	0xbb7243ed	-0.0036966756
101	0x3d0974f6	0.03355881
102	0x3d65f80c	0.05614476
103	0x3d4e4a4d	0.050363827
104	0xbd04f98c	-0.03246455
105	0x3de3d44e	0.11124478
106	0x3c95c8c9	0.018284218
107	0xbce25990	-0.027630597
108	0xbd8da121	-0.069154985
109	0xbdc000eb	-0.09375175
110	0x3d47a299	0.04873905
111	0xbca5550c	-0.020182155
112	0xbb045720	-0.0020193532
113	0x3d4a6c6d	0.04941981
114	0x3da46430	0.08026922
115	0xbd087a61	-0.033319835
116	0xbd567eef	-0.052367147
117	0xbc05e9db	-0.008173431
118	0x3cad5bc6	0.021161925
119	0xbdabb0fb	-0.08383366
120	0xbcca8828	-0.024723127
121	0xbd0046e5	-0.03131761
122	0xbe03dc60	-0.12877035
123	0xbd157991	-0.036492888
124	0xbd792ae6	-0.060831927
125	0x3ba17049	0.0049267155
126	0xbd418b63	-0.04725207
127	0x3d3f3092	0.04667718
128	0x3cf372cd	0.029717827
129	0x3c472b3a	0.012156302
130	0x3bd5a49e	0.006519868
131	0xbc9a56f4	-0.01884029
132	0x3d337d07	0.043820407
133	0x3d1b2050	0.037872612
134	0x3d0562aa	0.032564797
135	0xbca40124	-0.020020075
136	0xbc9f7e14	-0.019469298
137	0x3dc2c394	0.0950996
138	0xbda9484b	-0.08265742
139	0xbdab6bd0	-0.08370173
140	0xbd11c9a0	-0.035592675
141	0xbceb49f8	-0.028721794
142	0xbcb56c19	-0.022146272
143	0xbdc47ea6	-0.09594469
144	0xbd81c882	-0.06337072
145	0xbd48b553	-0.04900105
146	0x3d75b669	0.059988413
147	0xbcd8be21	-0.026457848
148	0x3d9bff4e	0.07617055
149	0x3d9a8c74	0.075463206
150	0xbd39d9b0	-0.04537362
151	0x3dcf601c	0.10125753
152	0x3d6ddb2a	0.05807034
153	0x3ddd9017	0.108184986
154	0x3e176848	0.14785874
155	0xbdcee621	-0.10102487
156	0x3e21b675	0.15792258
157	0x3dce3f66	0.10070686
158	0xbde1944b	-0.11014613
159	0x3dc8c6cb	0.09803542
160	0x3da6c09c	0.08142206
161	0xbc99cc70	-0.018774241
162	0x3b0f730f	0.0021888649
163	0xbd5ad267	-0.05342331
164	0xbd869c94	-0.06572834
165	0x3d9e818a	0.07739551
166	0x3caefda2	0.021361176
167	0xbd6f27af	-0.058387455
168	0xbd229760	-0.039695144
169	0x3d261c0c	0.04055409
170	0xbd95d811	-0.07316602
171	0xbe0a233d	-0.13490005
172	0xbd8659e5	-0.06560115
173	0x3c8269aa	0.015919525
174	0xbd624e5f	-0.05525052
175	0x3d600501	0.054692272
176	0x3dc50fd4	0.096221596
177	0xbdd7bbfa	-0.105339006
178	0xbcdb807d	-0.026794666
179	0x3d022472	0.03177304
180	0xbca93de9	-0.020659404
181	0x3d90add3	0.07064404
182	0x3d84024d	0.06445751
183	0xbd1002b4	-0.035158828
184	0xbce68c24	-0.028142996
185	0x3dd35cc7	0.1032043
186	0xbd02ce18	-0.031934828
187	0xbd0cb2e0	-0.034350276
188	0xbc733870	-0.014844999
189	0x3c86fa7b	0.01647686
190	0xbdc29807	-0.09501653
191	0xbe06eaab	-0.13175456
192	0x3cd1909b	0.025581649
193	0x3d1b0e9a	0.037855722
194	0xbdd8c62d	-0.10584674
195	0xbd0ee05c	-0.034881935
196	0xbddfacda	-0.10921641
197	0x3cc1be4c	0.023650311
198	0xbc915cae	-0.017744388
199	0x3ddd2d65	0.10799674
200	0x3d76fbd1	0.060298745
201	0x3d0d0e01	0.034437183
202	0xbd56f158	-0.052476257
203	0x3ca3000a	0.01989748
204	0x3ce5502a	0.027992327
205	0xbd8a2420	-0.067451715
206	0x3db2e617	0.087352924
207	0x3c1929b0	0.009348318
208	0x3daad1c3	0.0834079
209	0x3de07869	0.109604664
210	0xbc353401	-0.011059762
211	0xb9d10330	-0.0003986596
212	0x3e052744	0.1300326
213	0xbd70bc34	-0.058773234
214	0xbb8600b1	-0.004089438
215	0xbd14ae21	-0.036298875
216	0xbe12aa7f	-0.14322852
217	0xbe05b5ff	-0.13057707
218	0x3c743d68	0.0149072185
219	0xbd940704	-0.072279006
220	0xbd806e69	-0.06271059
221	0xbb9ecd63	-0.0048462613
222	0x3ac483c8	0.0014992887
223	0xbdc265a5	-0.094920434
224	0xbd75ea83	-0.0600381
225	0x3db5152d	0.088419296
226	0x3cd183ca	0.025575537
227	0xbcccb042	-0.02498639
228	0x3d84b5fb	0.064800225
229	0x3c5f1ad6	0.013617238
230	0x3d57e77e	0.052711003
231	0xbce44db8	-0.02786909
232	0xbd3026d5	-0.043005783
233	0xbd27d0b4	-0.04097052
234	0xbd50494b	-0.050851148
235	0xbd93163e	-0.07181977
236	0x3d62ed9d	0.055402387
237	0xbdf3ac77	-0.118981294
238	0xbd4ba87d	-0.04972123
239	0x3d8df2bf	0.06931066
240	0xbba99ce9	-0.005176176
241	0xba857e1e	-0.001018468
242	0x3d267bcf	0.040645417
243	0xbd401e3d	-0.046903837
244	0x3d1bc8c7	0.038033273
245	0x3ca6c468	0.020357326
246	0xbda19cad	-0.07891212
247	0xbd2c17c2	-0.042014845
248	0x3d222d92	0.03959424
249	0xbd5b9e55	-0.053617794
250	0xbd2d9da5	-0.04238667
251	0x3d351486	0.044209026
252	0xbb4d8a1c	-0.0031362837
253	0x3c2e3cbd	0.010634598
254	0x3d941af6	0.07231705
255	0xbd2e6ec9	-0.04258612

152 f4 [32]
0	0x3ebb9c4e	0.3664269
1	0xbe2d766d	-0.16939707
2	0x3eca664a	0.39531165
3	0x3ff6fbc4	1.9295583
4	0x40052f95	2.0810292
5	0x3e8a5546	0.27018183
6	0x3f02087c	0.50794196
7	0x3f9ab3ea	1.2086155
8	0x3f2acc3a	0.66717875
9	0x3f7481b6	0.95510423
10	0x3e4967f9	0.19668569
11	0x3f27c4ff	0.6553497
12	0x3e726b04	0.23673636
13	0x3ea82b94	0.32845747
14	0x3f906a55	1.128245
15	0xbe013868	-0.12619174
16	0x3f7e3ce6	0.99311674
17	0x3f74d1f2	0.9563285
18	0x3e52c27e	0.20582005
19	0x3f8ea5e2	1.1144373
20	0xbe939427	-0.2882397
21	0xbe03151c	-0.12801021
22	0x3ed704ec	0.41995943
23	0x3d607fac	0.054809257
24	0x3e9a51b9	0.30140474
25	0xbe3dd58a	-0.1853849
26	0x3edf2f2f	0.43590686
27	0x3e0b5a29	0.13608612
28	0x3ef6edf8	0.4822843
29	0xbe9f052d	-0.31058636
30	0x3ed8ff42	0.42382246
31	0x3e95b799	0.29241636

154 f4 [32, 32, 3, 3]
0	0x3d89a4a9	0.067208596
1	0x3d4c06e9	0.049811278
2	0xbd0f7bb2	-0.035030074
3	0x3d99c993	0.0750915
4	0x3cbc503d	0.02298748
5	0x3c9d8f8d	0.01923349
6	0x3da8073c	0.08204505
7	0x3d7f341a	0.062305547
8	0xbd604d02	-0.05476094
9	0xbd206b87	-0.039165046
10	0xbd8f9c5e	-0.070122465
11	0x3db6d073	0.08926477
12	0x3d23074a	0.039801873
13	0xbcb412b6	-0.021981578
14	0x3da57898	0.08079642
15	0xbcfced0e	-0.030874755
16	0xbe2d8f55	-0.16949208
17	0x3d3ed3d9	0.046588752
18	0x3d9b7440	0.07590532
19	0x3c4f3c72	0.012648689
20	0xbcb9e0d0	-0.022690207
21	0x3d077f98	0.033080667
22	0xbcefc0de	-0.02926677
23	0xbe054508	-0.13014615
24	0xbc018c35	-0.007906963
25	0xbdaddf1b	-0.084898196
26	0xbe0c73db	-0.1371607
27	0x3d22a1c3	0.03970505
28	0x3d5cb72e	0.05388563
29	0xbb17f90e	-0.002318922
30	0x3cee4808	0.029087082
31	0x3da4433e	0.08020638
32	0x3c761def	0.015021785
33	0xbcebfe7f	-0.028807877
34	0x3d6517d3	0.055930924
35	0x3c2e8a8d	0.01065315
36	0x3b40ed91	0.0029438476
37	0x3ba61437	0.0050683278
38	0xbdb5fe50	-0.08886397
39	0xbc3186eb	-0.01083539
40	0x3d3c286e	0.045936994
41	0xbdbfcc41	-0.0936513
42	0xbd9a0647	-0.075207286
43	0xbd127d17	-0.035763826
44	0xbd916e3b	-0.07101103
45	0xbdad6289	-0.0846606
46	0x3d44e4ec	0.04806988
47	0x3d3d8e2d	0.046278168
48	0x3dbe0333	0.09277954
49	0xbc1ebec8	-0.0096890405
50	0x3cdb8311	0.026795896
51	0x3e3b41ca	0.18286815
52	0x3d355439	0.044269774
53	0xbdb436c9	-0.08799512
54	0x3e17fef9	0.14843358
55	0x3d76a55d	0.060216296
56	0x3e00d85e	0.12582538
57	0x3db5c3ed	0.088752605
58	0x3c52d9a8	0.012869276
59	0xbcb3c4b4	-0.021944381
60	0x3dbb720d	0.09152613
61	0xbd20eae2	-0.0392865
62	0xbc10a76a	-0.008828977
63	0xbba56375	-0.0050472566
64	0xbc9bc73a	-0.019015897
65	0x3d0e3414	0.034717634
66	0x3bd45126	0.0064794
67	0x3b2572f6	0.0025245524
68	0x3d86239d	0.065497614
69	0xbd2bbb80	-0.04192686
70	0xbce792ef	-0.028268306
71	0xbd9c544c	-0.07633266
72	0x3b9a40ea	0.0047074454
73	0x3cd96031	0.026535125
74	0x3cf9b49d	0.030481631
75	0x3d4b60b3	0.049652766
76	0x3c6d7180	0.014492393
77	0x3daed83b	0.085373364
78	0xbdac1eb1	-0.084042914
79	0xbbe5e87c	-0.0070162397
80	0xbc005103	-0.007831815
81	0x3ced202d	0.028946007
82	0x3d043dba	0.03228543
83	0xbd9dbaa0	-0.077016115
84	0xbd281daf	-0.041043933
85	0xbdd9e59d	-0.106394984
86	0xbd86ef25	-0.06588582
87	0x3d5da3bf	0.05411124
88	0xbd03ea6b	-0.03220598
89	0xbe57a21c	-0.21057934
90	0x3de1973f	0.11015176
91	0xbd38f339	-0.04515383
92	0x3cf1630f	0.02946618
93	0xbc843b08	-0.01614143
94	0x3cdb50bf	0.026771901
95	0x3e590ae9	0.21195568
96	0x3d684130	0.056702793
97	0xbd5728cc	-0.05252914
98	0x3e0ffe09	0.1406175
99	0xbbd98b91	-0.006638952
100	0x3d851f73	0.06500139
101	0x3dd539d8	0.104114234
102	0xbdab0218	-0.08350009
103	0xbc5de8d5	-0.013544281
104	0x3db08ed3	0.086209916
105	0x3d0716af	0.032980617
106	0xbc309115	-0.010776778
107	0x3d0de6d7	0.034643974
108	0x3a03a1db	0.0005021372
109	0xbd707939	-0.058709357
110	0xbdc36ee7	-0.09542637
111	0x3d54f963	0.051995646
112	0x3cd062eb	0.025437793
113	0xbe4c20d5	-0.199344
114	0xbcc1053c	-0.023562066
115	0xbcf324a4	-0.029680558
116	0xbe348af4	-0.17631131
117	0xbc36fd8b	-0.011168848
118	0x3bb246e5	0.00544058
119	0x3d737a46	0.05944278
120	0x3caaac4e	0.020834114
121	0xbd12e375	-0.03586145
122	0x3ddcffd3	0.10790982
123	0x3bcdb6b0	0.0062778816
124	0xbd2f0394	-0.04272802
125	0x3cb2b360	0.021814048
126	0xbd1969f0	-0.037454545
127	0xbda4ccb6	-0.08046858
128	0xbda0677e	-0.078322396
129	0x3bb786cc	0.005600786
130	0xbc81c477	-0.015840752
131	0xbcc51e14	-0.024062194
132	0xbbcbacec	-0.0062156823
133	0x3d08ff5b	0.03344665
134	0xbe0a9e11	-0.1353686
135	0x3d0fff5a	0.03515563
136	0x3cbfccac	0.023413025
137	0x3ca58e38	0.020209417
138	0xbc4082c3	-0.011749926
139	0xbd51a116	-0.051179014
140	0x3d0c87fb	0.03430937
141	0xbd4a2c3e	-0.0493586
142	0xbd0b4df4	-0.03400989
143	0xbca0fcdd	-0.019651825
144	0xbc6e6879	-0.014551275
145	0x3c8edd94	0.017439641
146	0x3d9a2553	0.0752665
147	0xbc82b28b	-0.015954277
148	0xbd01bcef	-0.03167432
149	0x3bf41a1a	0.0074494006
150	0xbdbbba1d	-0.09166358
151	0xbc4e56bd	-0.012593922
152	0x3d0e55ac	0.03474967
153	0xbd95b3ae	-0.07309662
154	0xbc5e0845	-0.013551776
155	0xbbcf6188	-0.0063287653
156	0xbe1fca1e	-0.15604445
157	0xbc9d0867	-0.019169046
158	0x3ba04898	0.0048914663
159	0xbd8119e6	-0.06303768
160	0x3d576fbf	0.052596804
161	0x3de92601	0.11384202
162	0xbe501f81	-0.20324518
163	0xbd668947	-0.05628326
164	0xbd839039	-0.06423993
165	0x3d2c74f7	0.042103734
166	0xbcccd811	-0.025005372
167	0x3c354dc3	0.011065903
168	0x3d9645c1	0.07337523
169	0x3c9ce6d8	0.019153044
170	0x3c9d9fa1	0.019241156
171	0xba420ed8	-0.00074027246
172	0x3d58619c	0.052827463
173	0x3d3a773d	0.04552387
174	0x3d098890	0.0335775
175	0x3cc59c66	0.024122428
176	0xbd0a19da	-0.03371606
177	0xbbe5688d	-0.007000989
178	0x3c14c5cc	0.009080362
179	0xbcfa4cf6	-0.030554276
180	0x3ccb93af	0.024850694
181	0xbcca42f4	-0.024690129
182	0xbddc74a1	-0.10764433
183	0xbd1361e9	-0.035982046
184	0xbd013186	-0.03154137
185	0xbd8b9992	-0.068164006
186	0xbdc0d6da	-0.0941598
187	0x3c23c867	0.00999651
188	0xbd376e39	-0.04478285
189	0xbd620453	-0.055179905
190	0x3c46558e	0.012105359
191	0x3e51f76e	0.20504543
192	0x3cd43ebf	0.025908826
193	0xbd62c9bc	-0.05536817
194	0xbc109dde	-0.008826701
195	0xbdb15677	-0.0865907
196	0xbc2a6d48	-0.010402031
197	0xbe1cef34	-0.15325624
198	0xbd6a3dea	-0.057187952
199	0x3d101bb5	0.035182673
200	0xbe11e342	-0.14246848
201	0xbdadd06f	-0.08487021
202	0x3cab4199	0.020905303
203	0xbdbb0550	-0.09131873
204	0xbc06602e	-0.008201642
205	0x3d784b02	0.060618408
206	0x3d38d9e4	0.04512967
207	0xbac267e8	-0.0014831992
208	0xbd22a401	-0.039707188
209	0xbd571aee	-0.052515917
210	0x3c6175d7	0.013761005
211	0x3e0bc1f1	0.13648202
212	0x3c6285bb	0.013825829
213	0xbcd14b3b	-0.025548568
214	0x3e028c2e	0.12748787
215	0x3d96de90	0.07366669
216	0x3c72ba75	0.014814963
217	0x3c4b30f7	0.012401811
218	0xbd651cc4	-0.055935636
219	0x3c9c20ac	0.019058548
220	0x3c761afe	0.015021084
221	0xbdc71096	-0.097199604
222	0xbd77b477	-0.06047484
223	0xbd85a3e6	-0.06525402
224	0xbcf1e48f	-0.02952793
225	0x3d2c2a3a	0.042032458
226	0xbe04057a	-0.12892714
227	0xbdf9514a	-0.12173708
228	0x3b6b327b	0.0035888243
229	0x3d405dd8	0.046964496
230	0x3d77c30e	0.060488753
231	0x3be60565	0.007019686
232	0x3db16c9e	0.08663295
233	0x3dd57836	0.10423319
234	0x3cd72ebc	0.026267402
235	0x3b55455d	0.0032542564
236	0x3cb4f5d9	0.022089886
237	0xbc7ea27a	-0.015541667
238	0xbe44981c	-0.1919865
239	0xbd8280a2	-0.06372191
240	0xbc99a08a	-0.018753309
241	0x3d1f0171	0.038819734
242	0xbdb3d292	-0.087803975
243	0xbd170705	-0.03687193
244	0xbda9c5dd	-0.082896926
245	0xbdaca6b8	-0.084302366
246	0x3d6c6343	0.05771185
247	0x3c960889	0.018314617
248	0xbd0eaaa4	-0.034830704
249	0x3d545d9a	0.051847078
250	0xbcf8828c	-0.030335687
251	0xbd94792b	-0.072496735
252	0x3dc64184	0.09680465
253	0x3e015687	0.12630664
254	0x3d8d1276	0.06888287
255	0x3de33748	0.110945284

155 f4 [32]
0	0x3e548496	0.20753703
1	0x3f7558ee	0.9583882
2	0x3f6fd512	0.93684494
3	0x3f92856b	1.1446966
4	0x3fc43c10	1.533083
5	0x3ea91310	0.33022356
6	0xbdaf5e50	-0.085629106
7	0x3ed488a0	0.41510487
8	0x3e57a9c6	0.21060857
9	0x3f961611	1.1725484
10	0x3f22f7ee	0.6365956
11	0x3e14a676	0.14516625
12	0x3f5bd7bd	0.85876065
13	0xbe8a85af	-0.27055117
14	0x3f1a9c76	0.6039499
15	0x3e43db84	0.19126707
16	0x3ef35144	0.47522938
17	0x3ea40589	0.32035473
18	0x3fccb461	1.5992547
19	0x3f3c5832	0.73572075
20	0x3f6f9f44	0.93602395
21	0x3fb5fb6a	1.421735
22	0x3ee6e82c	0.45099008
23	0xbf2e8d16	-0.6818403
24	0x3e855048	0.26037812
25	0x3f859af0	1.0437908
26	0x3f2e7547	0.681477
27	0x3f3e44bd	0.74323636
28	0x3f489b19	0.7836166
29	0x3ea194dc	0.31558883
30	0x3ea404c9	0.320349
31	0xbeeb6a73	-0.45979652
